hw1_Regression/Output/weight.npy (npy, 1432 bytes, 1 tensors)

array f8 [163, 1]
00000000: 4e54 8902 ca61 4540 ad0e b2e6 03a5 c53f
00000010: 9730 784b b36f d0bf 3fb2 4ab9 4548 b13f
00000020: 3f7d 9335 63ef c4bf b5e3 181d 082d aebf
00000030: 3265 63ab 6116 a13f 5b52 9eb7 e8db b5bf
00000040: 244e a9b9 6342 d63f 1dec 78b1 4e4a d0bf
00000050: 71b1 017b e66c c6bf 00c6 e9b2 ab85 cf3f
00000060: cbad 2f32 3347 fdbf fd8f 7acc 396c c33f
00000070: 74dc c6cb 1b13 c23f d2c9 3205 c803 a6bf
00000080: 4abb 342a 0001 07c0 21c1 5983 e536 ed3f
00000090: 08c2 3e70 115b 1040 cde6 ca9f f193 c5bf
000000a0: a8ff 91d1 f912 b4bf 1a74 435f 66d6 b7bf
000000b0: e531 24d6 0e89 eb3f c867 4504 af0c debf
000000c0: bae1 4984 8f04 d8bf bbaf 52bf ee64 d93f
000000d0: 70d0 0ddd 56fd debf 9ca5 2c9e 8fd7 dd3f
000000e0: aa80 3f40 2c7c bbbf fe13 c9d5 a7d2 b7bf
000000f0: ed2c a749 a37a b4bf 3ef6 51fd a958 d4bf
00000100: f581 41f1 0eea cbbf ee50 b1ad 206d c43f
00000110: 88a4 09ec 70c3 c5bf 99d2 406f 49d2 d13f
00000120: dc50 b826 45de d93f d4db ba53 ec36 b33f
00000130: 5671 00bb 9f42 e83f 61a6 766c cbf4 e0bf
00000140: 156b b704 178f e53f 4c5a 3fd9 85be c03f
00000150: fd78 0e6e e831 f8bf 8d69 8614 f867 e03f
00000160: 952a 0e22 245f f1bf cb54 87f6 4351 ee3f
00000170: 2079 c79e 29b2 a5bf 80a9 3e5f b1d5 ba3f
00000180: 0833 7f4f bb38 dcbf cd14 1eec a1bd dc3f
00000190: 4307 2ece 5b2d c2bf 0625 b43d 0831 dabf
000001a0: 1e05 d83a a26a c83f b419 7677 c8eb debf
000001b0: 5de1 e578 14e4 d8bf be51 9548 2291 97bf
000001c0: f1b3 cdad 121a f6bf 9d78 9d56 6a70 a5bf
000001d0: 94af b15d 53c3 e3bf 1c9d dea8 c2f5 edbf
000001e0: ceb3 8ce8 9165 d33f 65f3 ae64 48ff dbbf
000001f0: e1b2 4d90 be0e f7bf f289 bf75 05e4 fc3f
00000200: 4ac5 4fcd a0e6 e03f 208b 5e50 6fc6 d43f
00000210: 1416 1755 3cbb ee3f de23 ae68 ed5d d03f
00000220: 65eb 367d b5ad e1bf d0eb 22ae 4c04 f43f
00000230: 033b 19b1 5a4a e3bf 65e8 9dbe 64cb f93f
00000240: e468 aaea aff8 f13f 4cf2 ef90 eeec dc3f
00000250: 093b cfb0 3abb cf3f c8a9 952b 0e5c b93f
00000260: faca 4ff6 89c2 c9bf 13fe 908f 4862 f0bf
00000270: 6d1a e251 bf1b be3f 64df b9fe 4b9e f0bf
00000280: f724 f8ac 8de5 f0bf 6fc9 a473 adad 0840
00000290: 6012 f6e4 64b2 f1bf 7de3 b974 999b e33f
000002a0: b149 691f 7019 1140 5cbc dec6 266a 1bc0
000002b0: 8864 acb0 ced1 f13f a52c d2ce 4617 2740
000002c0: 4db7 e1bc ef46 2cc0 3893 a328 0912 0140
000002d0: 9aea 7ffd 1bc5 3640 efe7 07a8 4024 e43f
000002e0: ddd5 af28 6637 b3bf 93fe 4459 0b53 f2bf
000002f0: 2f3a 33cc ef4a 0040 a6d9 7ca6 91c7 f7bf
00000300: d93b 38d9 7f60 e8bf 51ff 16b2 c7c0 ff3f
00000310: a7b6 53c8 2bb8 f6bf eaec 025d c28f 0740
00000320: 4602 5f74 cf6d 933f 8a76 b1d6 20ed c93f
00000330: 33bf 8473 09ac a7bf 69b5 49d0 c71a b9bf
00000340: 2304 090f dd54 953f 3f2a dee3 fcba c63f
00000350: 3e16 8c09 2eab cfbf 3e8a 37cf 22e3 b5bf
00000360: 1b5e 4422 052a c1bf af05 c506 963c 97bf
00000370: 6a1d bacd 22a9 8d3f d185 d085 040d bbbf
00000380: 5e52 dcf6 a788 e5bf 9f77 43a4 f9ab cd3f
00000390: 8351 e006 3ed7 cb3f 1176 4232 91d3 02c0
000003a0: 916f 55f6 a24d 0040 1f61 1cda 5ba3 c7bf
000003b0: 05de 243f c156 c6bf 68a4 92c1 69ab e23f
000003c0: eb34 7e35 4ac8 d83f fb4e 0a16 ac0d ebbf
000003d0: 9aee 7b80 7a16 e43f b564 53ee f22f c5bf
000003e0: 518d 9885 7ec3 d4bf be62 7d7c 5da9 cebf
000003f0: 0451 01d2 4ff1 ea3f 08bd f0ed 9f57 a2bf
00000400: ad1c 0434 36aa d6bf a60e 5603 bb85 da3f
00000410: a4c8 92c0 ca8f edbf 007d a963 4396 e43f
00000420: 0ec3 a8e3 8725 f03f 8da3 4b49 9cb7 e4bf
00000430: a10b 7d9a 54a5 e63f 3432 d083 ae9e d4bf
00000440: 09f4 2f9b 6a77 d6bf b4ca b3ca c0ac b73f
00000450: 6748 b446 cfa1 d3bf 7175 9b5d 5cc8 bb3f
00000460: 2de2 4c24 b079 a73f 8265 113b ebeb b2bf
00000470: 8c1e f1f0 2b08 a53f 983e b1b4 b792 da3f
00000480: 19f1 ddda 6b22 bebf 7b5a f930 3a7f 883f
00000490: 7e6b 4ec3 9b33 c1bf 79bb 0500 ecbc d73f
000004a0: ef58 16c5 5db1 d0bf 6d2d 4b20 c0f8 b03f
000004b0: bd8b 5508 42d9 d3bf 5ffa 6af1 7b5e d6bf
000004c0: 4378 76d9 27db b0bf 75a4 0a49 9897 cc3f
000004d0: 8ac9 4e2a e434 cdbf 9f72 5070 806d b9bf
000004e0: 9fd3 69fe 4269 7bbf 6e9a d25c db83 d1bf
000004f0: b3fb 4906 0167 d93f 94a4 b53d f7f9 4ebf
00000500: ed7c a9a6 f451 a8bf df4d 74a7 d7bf d33f
00000510: d362 14e8 f827 b2bf
42.763977353148775 0.16909836544447412 -0.25681764955585024 0.06750903867459444 -0.16355552783987012 -0.05893731455984811 0.033373882457178886 -0.08538679583427593
0.3478020966624362 -0.25453536349567846 -0.1751983738535148 0.24626680599207873 -1.8298828087234706 0.1517402885848468 0.1412081475261605 -0.04299759925324377
-2.8754885957090766 0.9129512372437923 4.088933709936562 -0.16857738783237722 -0.0784145485540636 -0.09311523271340186 0.8604807074021293 -0.46952414910412843
-0.3752783576851716 0.39678543743024947 -0.4842126044015975 0.46628179976195283 -0.10736347740703658 -0.09305809945460905 -0.0799963049714056 -0.31791162241265514
-0.21808039455483166 0.1595803115948295 -0.17002688908840846 0.2784598909814036 0.404191291630253 0.07505681080043242 0.7581328060510184 -0.5298821562220831
0.673717030727263 0.13081429584299753 -1.5121845530589433 0.5126915360336156 -1.085727818516408 0.9474201025974706 -0.04237489760611113 0.10482319426833975
-0.4409626270615239 0.4490742498240479 -0.14200923507092442 -0.4092426874709222 0.19075420258744996 -0.48314105669160345 -0.38892089659159074 -0.02301457946789908
-1.381365469856288 -0.04187328631700036 -0.6175934629404645 -0.9362500475153044 0.30307433805392925 -0.43745622475016993 -1.4410997044425857 1.805669269517804
0.528152848242976 0.32461150024953334 0.9603559171598044 0.25573287222556285 -0.5524547048183704 1.2510496904567283 -0.6028264483410058 1.6121566244096581
1.1232146422030889 0.4519611754801971 0.2479012835815058 0.09906090320661243 -0.20124935652673753 -1.0239949806272122 0.11761089085676142 -1.0386466932522689
-1.0560433155645208 3.0848034891761738 -1.1060532516286443 0.6127440719420602 4.274841776658307 -6.853663546890939 1.1137225056939162 11.545462096363119
-14.13854780440638 2.1338065314215804 22.769958347062676 0.6294253618100337 -0.0750640725453517 -1.1452744948473181 2.036590190232594 -1.4862228873658778
-0.7617797129222438 1.9845654446252932 -1.4199636292718567 2.945194937373903 0.018973580816011436 0.2025490806872095 -0.04623441252840479 -0.0980648883357468
0.02083154110210129 0.17758141638144484 -0.24741149393246248 -0.08549706992156644 -0.13409485028454146 -0.022692054904160205 0.014482757476129666 -0.10566738383251752
-0.6729316541191783 0.2318107654636465 0.21750617347482767 -2.353304283765063 2.0379084820578517 -0.18467281484550654 -0.17452254851535556 0.5834244518965876
0.3872247240440873 -0.8454189711069086 0.6277439603286041 -0.16552578579902436 -0.3244320206306002 -0.23954361513712813 0.841957006613058 -0.03582477359338482
-0.3541388996095048 0.41441226316258406 -0.923802734489318 0.6433426805996589 1.009162797254422 -0.6474133903076208 0.7076819436409673 -0.32218516228093397
-0.3510386004925868 0.09247975300585659 -0.30675107865056933 0.10852601323445811 0.04585028117293564 -0.07391233627403973 0.04107796970543828 0.4152049316953508
-0.11771272748405116 0.011961416835373875 -0.13438746487085135 0.370905876180522 -0.260825579135953 0.06629563129825096 -0.3101353722942653 -0.3495168550106537
-0.06584405001783104 0.22337630812151912 -0.22817661348160484 -0.09932711355254263 -0.006692182249584371 -0.27367290558542023 0.39691186536941386 -0.0009453255874351135
-0.047500272125711486 0.30858413079223895 -0.07092242876059211
